…
2019-03-02 19:06:14,206:INFO: --------------------------------------------------------------------------------
2019-03-02 19:06:14,207:INFO: sample_filename=top_tag_reference_dataset_kt_1200000_Njets_
2019-03-02 19:06:14,207:INFO: ------------------------------------------------------------
2019-03-02 19:06:14,207:INFO: Loading the datasets...
2019-03-02 19:06:28,186:INFO: - done loading the datasets
2019-03-02 19:06:28,189:INFO: ------------------------------------------------------------
2019-03-02 19:06:29,254:INFO: Total parameters of the model= 75251
2019-03-02 19:06:29,254:INFO: Total weights of the model= 75251
2019-03-02 19:06:29,254:INFO: Model= PredictFromParticleEmbeddingNiN(
  (fc_u): Linear(in_features=7, out_features=50, bias=True)
  (fc_h): Linear(in_features=150, out_features=50, bias=True)
  (fc_u_inner1): Linear(in_features=7, out_features=50, bias=True)
  (fc_u_outer1): Linear(in_features=7, out_features=50, bias=True)
  (fc_u_inner): Linear(in_features=7, out_features=50, bias=True)
  (fc_u_outer): Linear(in_features=7, out_features=50, bias=True)
  (fc_N0): Linear(in_features=50, out_features=50, bias=True)
  (fc_N1): Linear(in_features=50, out_features=50, bias=True)
  (fc_N2): Linear(in_features=50, out_features=50, bias=True)
  (fc_N3): Linear(in_features=50, out_features=50, bias=True)
  (fc_N4): Linear(in_features=50, out_features=50, bias=True)
  (fc_N5): Linear(in_features=50, out_features=50, bias=True)
  (fc_N6): Linear(in_features=50, out_features=50, bias=True)
  (fc_N7): Linear(in_features=50, out_features=50, bias=True)
  (fc_N8): Linear(in_features=50, out_features=50, bias=True)
  (fc_N9): Linear(in_features=50, out_features=50, bias=True)
  (transform): GRNNTransformSimpleNiN(
    (fc_u): Linear(in_features=7, out_features=50, bias=True)
    (fc_h): Linear(in_features=150, out_features=50, bias=True)
    (fc_u_inner1): Linear(in_features=7, out_features=50, bias=True)
    (fc_u_outer1): Linear(in_features=7, out_features=50, bias=True)
    (fc_u_inner): Linear(in_features=7, out_features=50, bias=True)
    (fc_u_outer): Linear(in_features=7, out_features=50, bias=True)
    (fc_N0): Linear(in_features=50, out_features=50, bias=True)
    (fc_N1): Linear(in_features=50, out_features=50, bias=True)
    (fc_N2): Linear(in_features=50, out_features=50, bias=True)
    (fc_N3): Linear(in_features=50, out_features=50, bias=True)
    (fc_N4): Linear(in_features=50, out_features=50, bias=True)
    (fc_N5): Linear(in_features=50, out_features=50, bias=True)
    (fc_N6): Linear(in_features=50, out_features=50, bias=True)
    (fc_N7): Linear(in_features=50, out_features=50, bias=True)
    (fc_N8): Linear(in_features=50, out_features=50, bias=True)
    (fc_N9): Linear(in_features=50, out_features=50, bias=True)
  )
  (fc1): Linear(in_features=50, out_features=50, bias=True)
  (fc2): Linear(in_features=50, out_features=50, bias=True)
  (fc3): Linear(in_features=50, out_features=1, bias=True)
)
2019-03-02 19:06:29,254:INFO: ------------------------------------------------------------
2019-03-02 19:06:29,254:INFO: Building optimizer...
2019-03-02 19:06:29,254:INFO: Starting training for 40 epoch(s)
2019-03-02 19:06:31,640:INFO: Epoch 1/40
2019-03-02 19:12:25,347:INFO: - Train metrics: accuracy: 0.878 ; loss: 0.408
2019-03-02 19:13:44,879:INFO: - Eval metrics : accuracy: 0.909 ; loss: 0.222
…
