…
2019-03-02 19:07:07,430:INFO: --------------------------------------------------------------------------------
2019-03-02 19:07:07,430:INFO: sample_filename=top_tag_reference_dataset_kt_1200000_Njets_
2019-03-02 19:07:07,430:INFO: ------------------------------------------------------------
2019-03-02 19:07:07,431:INFO: Loading the datasets...
2019-03-02 19:07:22,593:INFO: - done loading the datasets
2019-03-02 19:07:22,595:INFO: ------------------------------------------------------------
2019-03-02 19:07:23,808:INFO: Total parameters of the model= 75251
2019-03-02 19:07:23,809:INFO: Total weights of the model= 75251
2019-03-02 19:07:23,809:INFO: Model= PredictFromParticleEmbeddingNiN(
  (fc_u): Linear(in_features=7, out_features=50, bias=True)
  (fc_h): Linear(in_features=150, out_features=50, bias=True)
  (fc_u_inner1): Linear(in_features=7, out_features=50, bias=True)
  (fc_u_outer1): Linear(in_features=7, out_features=50, bias=True)
  (fc_u_inner): Linear(in_features=7, out_features=50, bias=True)
  (fc_u_outer): Linear(in_features=7, out_features=50, bias=True)
  (fc_N0): Linear(in_features=50, out_features=50, bias=True)
  (fc_N1): Linear(in_features=50, out_features=50, bias=True)
  (fc_N2): Linear(in_features=50, out_features=50, bias=True)
  (fc_N3): Linear(in_features=50, out_features=50, bias=True)
  (fc_N4): Linear(in_features=50, out_features=50, bias=True)
  (fc_N5): Linear(in_features=50, out_features=50, bias=True)
  (fc_N6): Linear(in_features=50, out_features=50, bias=True)
  (fc_N7): Linear(in_features=50, out_features=50, bias=True)
  (fc_N8): Linear(in_features=50, out_features=50, bias=True)
  (fc_N9): Linear(in_features=50, out_features=50, bias=True)
  (transform): GRNNTransformSimpleNiN(
    (fc_u): Linear(in_features=7, out_features=50, bias=True)
    (fc_h): Linear(in_features=150, out_features=50, bias=True)
    (fc_u_inner1): Linear(in_features=7, out_features=50, bias=True)
    (fc_u_outer1): Linear(in_features=7, out_features=50, bias=True)
    (fc_u_inner): Linear(in_features=7, out_features=50, bias=True)
    (fc_u_outer): Linear(in_features=7, out_features=50, bias=True)
    (fc_N0): Linear(in_features=50, out_features=50, bias=True)
    (fc_N1): Linear(in_features=50, out_features=50, bias=True)
    (fc_N2): Linear(in_features=50, out_features=50, bias=True)
    (fc_N3): Linear(in_features=50, out_features=50, bias=True)
    (fc_N4): Linear(in_features=50, out_features=50, bias=True)
    (fc_N5): Linear(in_features=50, out_features=50, bias=True)
    (fc_N6): Linear(in_features=50, out_features=50, bias=True)
    (fc_N7): Linear(in_features=50, out_features=50, bias=True)
    (fc_N8): Linear(in_features=50, out_features=50, bias=True)
    (fc_N9): Linear(in_features=50, out_features=50, bias=True)
  )
  (fc1): Linear(in_features=50, out_features=50, bias=True)
  (fc2): Linear(in_features=50, out_features=50, bias=True)
  (fc3): Linear(in_features=50, out_features=1, bias=True)
)
2019-03-02 19:07:23,809:INFO: ------------------------------------------------------------
2019-03-02 19:07:23,809:INFO: Building optimizer...
2019-03-02 19:07:23,809:INFO: Starting training for 40 epoch(s)
2019-03-02 19:07:26,489:INFO: Epoch 1/40
2019-03-02 19:13:25,092:INFO: - Train metrics: accuracy: 0.877 ; loss: 0.322
2019-03-02 19:14:44,780:INFO: - Eval metrics : accuracy: 0.915 ; loss: 0.208
…
